torch.Size([2, 400])
----------------------------------------------------------------
        Layer (type)               Output Shape         Param #
================================================================
            Conv2d-1            [-1, 6, 26, 26]              60
         MaxPool2d-2            [-1, 6, 13, 13]               0
            Conv2d-3           [-1, 16, 11, 11]             880
         MaxPool2d-4             [-1, 16, 5, 5]               0
            Linear-5                  [-1, 120]          48,120
            Linear-6                   [-1, 84]          10,164
            Linear-7                   [-1, 10]             850
================================================================
Total params: 60,074
Trainable params: 60,074
Non-trainable params: 0
----------------------------------------------------------------
Input size (MB): 0.00
Forward/backward pass size (MB): 0.06
Params size (MB): 0.23
Estimated Total Size (MB): 0.29
----------------------------------------------------------------
torch.Size([32, 400])
…
